…
We list the baselines for Basic3ResNet below and we will include all others in a revision.	I-Reply	I-3	Reply	20646
We also include the computation in "Flops" below as requested.	I-Reply	I-3	Reply	20646
We used "Params" as we think the number of layers is more related to the number of parameters, but we will include both in a revision.	I-Reply	I-3	Reply	20646
[line_break_token]-----------------------------------------------------------------------------[line_break_token]Net                                                 | Flops            | Params       | Accuracy[line_break_token]Basic3ResNet-[3, 3, 3]           41214592       272474            92.96[line_break_token]Basic3ResNet-[5, 5, 5]          69755520        466906            93.44[line_break_token]Basic3ResNet-[7, 7, 7]          98296448        661338            93.68[line_break_token]Basic3ResNet-[9, 9, 9]          126837376      855770            93.88[line_break_token]Basic3ResNet-[24, 24, 24]    340894336      2314010          94.26[line_break_token]Basic3ResNet-[42, 42, 42]    597762688      4063898          94.3[line_break_token]Basic3ResNet-[72, 72, 72]    1025876608    6980378          94.17[line_break_token]-----------------------------------------------------------------------------[line_break_token][line_break_token]- The conclusion holds for each run.	B-Reply	B-4	Reply	20646
We treat both ZeroInit and AdamInit as network morphism and, in table 2, we concluded that ZeroInit and AdamInit were similar and sub-optimal.	I-Reply	I-4	Reply	20646
[line_break_token]We run the the first setting in Table 2 for three runs, and the accuracy is 92.73%, 92.86%, 92.51%.	I-Reply	I-4	Reply	20646
…
